dbs/instance_models/a62cd526-ff16-11ec-912c-5d81233e93b4.pth (torch, 31779 bytes, 26 tensors)

weight f4 [28, 7]
00000000: a294 bc3e 3e0e 3a3e 0137 26bd b297 dfbd
00000010: 714b 953e 0252 fcbd e4d5 8e3e 8651 4fbe
00000020: 6a1e 483e 2fc3 523a c2b8 b5be 7cbb efbd
00000030: 4039 d3bd 677d 743b a77f 0abe caeb 1d3e
00000040: aea9 b2be b4d8 d3bd f96a 913e 2561 803c
00000050: d935 cc3d 74ca b93e 854b 893e eaa2 263e
00000060: a003 4f3d 1123 2c3d 54d0 b03e febc 49be
00000070: a96d b8be b182 1abd 3471 5abe 358f 81be
00000080: 502d 7e3e 540e 62be 3a0c 6b3e a3a4 ad3e
00000090: bfce b7be 0a98 85be 92a7 57bd ad39 733d
000000a0: 00f4 71be 4c32 9dbe 87bb 1a3d a7ad 953e
000000b0: 6afd 733d 6a94 b1be a9e4 733e 4b4c f1bd
000000c0: 2d55 a1be fe09 293e bf2d b93d 2b2c babe
000000d0: e472 5b3d 4f66 243e 48b0 8a3d 0686 483e
000000e0: a59a 973d 5c13 bf3d 9f81 793e 196b 933e
000000f0: aa1c 253d c8a3 96be 4c16 32be d745 be3e
00000100: d2a1 90be bc93 a5be 3e87 80be 8b56 bcbd
00000110: cfc9 1ebe 1963 403e da22 233d 6c1d bebe
00000120: 281b 973e b7cf 403e bbd2 8bbe 8203 b43c
00000130: b521 20be ea13 5d3e 0297 553e f993 423e
00000140: 4799 8b3e 4992 583d 39c6 71be 27d5 9dbe
00000150: 880c bc3e d670 55be 4add dc3d 7ae9 83be
00000160: 2375 62bc f725 8d3e 16bf 943e 7efb 753e
00000170: 9c23 27be 47c0 59bd 5310 96be 5c50 893e
00000180: 7dc9 41be 7f41 f3bd b539 9ebe fa79 c13c
00000190: cabe 29be 53d8 37be a0a6 6fbc 546d 6dbe
000001a0: 82d4 38be 8526 b33e a1ab bdbd 6662 86be
000001b0: bbfc 82be fac7 31be 1dba db3d 5a9c 753e
000001c0: 0b23 c73d bc63 a63e f541 adbe f65b 033e
000001d0: 125f 393e 2bd2 1fbe 7f4a 713e 50e1 493e
000001e0: 3662 29be 6c59 473e bbd7 043b 3661 b2be
000001f0: c663 fd3d 152d a53e e2da c03e f819 923e
00000200: 7179 873e 9245 833e 4c37 0bbe 6a8d 09be
00000210: 4ea7 023e f6c0 20bc 47be 1c3e 8190 bb3e
00000220: 589c 853e 6b5b b5be 9139 a43e 41c1 08be
00000230: bdd7 6ebd 779c a8be 3aa2 9ebe 53a9 0ebe
00000240: 2d44 bebe ddd8 b2be 5999 4c3e 9169 243e
00000250: e99d f83d ed8e 28bd 0db9 593d 18e9 8abe
00000260: 9bf3 99be ac99 a73e 4417 033e 3065 a3bd
00000270: f366 7b3e 4b82 7bbe 419b 9f3e 3032 583d
00000280: 49e3 41be 5b52 8cbd 1b62 873e 489e a0be
00000290: e0e3 1abd b1b5 89be c06e 84be 6b49 a63e
000002a0: c9f8 dd3c 496d b9be 0356 43be 458b dd3c
000002b0: 5c0a e43d 2408 b33e 99d4 a03e a81d 3bbd
000002c0: 4734 403e 9563 633e 2fcf 623d bec9 773e
000002d0: c0f6 cd3d 7a55 2e3d 06b9 48ba e7bb 953d
000002e0: e202 74be 9709 9ebe dd12 4a3c 3e16 923e
000002f0: fb1a 963e 3579 bd3e 925b 8bbd 8efd ab3e
00000300: 5c72 4d3e cd98 9d3d 1d76 acbe 14ae 80be
0.36832148 0.18169495 -0.0405798 -0.109176055 0.2915912 -0.12320329 0.2789756 -0.20245942
0.19542852 0.0008039949 -0.35492522 -0.11705682 -0.10313654 0.003730619 -0.13525258 0.15421978
-0.3489508 -0.10344067 0.28401926 0.015671322 0.09971208 0.36287272 0.2681543 0.16273084
0.050540566 0.04202563 0.34533942 -0.19701001 -0.36021164 -0.037722293 -0.21332246 -0.2530457
0.24821973 -0.22075778 0.22953883 0.3391467 -0.35899922 -0.2609256 -0.052650042 0.059381176
-0.23628235 -0.30702436 0.037776496 0.2923405 0.059567846 -0.34683543 0.23817696 -0.1178213
-0.31510296 0.16507718 0.090419285 -0.36361822 0.053576365 0.16054653 0.06771904 0.19582376
0.07402543 0.093298644 0.24365853 0.28792647 0.04031054 -0.2942183 -0.17391318 0.3716266
-0.2824846 -0.32339275 -0.25103182 -0.09196194 -0.15506671 0.18787803 0.03982816 -0.37131822
0.29512906 0.18829237 -0.27309212 0.021974329 -0.15637858 0.21589628 0.20858386 0.1900176
0.2726538 0.052873883 -0.23610772 -0.30826685 0.3672831 -0.20843825 0.10784395 -0.25764066
-0.013821873 0.27568027 0.29052037 0.24021718 -0.16322178 -0.053161886 -0.2930933 0.26819122
-0.18924518 -0.11877727 -0.30903402 0.023617733 -0.16576687 -0.17953615 -0.014627129 -0.23186237
-0.18049815 0.34990326 -0.09261251 -0.26246947 -0.25583443 -0.17361441 0.10728858 0.23985425
0.09723481 0.32497966 -0.33839384 0.12828049 0.18102673 -0.15607516 0.23563574 0.19714856
-0.16541371 0.19467705 0.0020270187 -0.3483979 0.12372546 0.32260957 0.37666994 0.28535438
0.2645984 0.25639015 -0.13595313 -0.13432851 0.12759134 -0.0098116305 0.1530696 0.36633685
0.26095843 -0.3542131 0.3207517 -0.1335497 -0.058311213 -0.32931873 -0.30983144 -0.1393178
-0.3716139 -0.3493108 0.19980372 0.16055895 0.12139494 -0.04115193 0.053154994 -0.2713096
-0.3006867 0.3273443 0.12801844 -0.07978284 0.24550991 -0.24561422 0.31173137 0.052782238
-0.18934359 -0.068516456 0.26442036 -0.3137076 -0.037814975 -0.26896432 -0.25865746 0.32477888
0.02709617 -0.3621619 -0.1907578 0.027043948 0.111347884 0.34967148 0.314122 -0.04568258
0.18769942 0.22205956 0.055373367 0.24198052 0.100568295 0.042561986 -0.0007656965 0.0731123
-0.23829225 -0.3086669 0.012333599 0.28532594 0.2931746 0.37006536 -0.06804575 0.33591884
0.20063156 0.0769516 -0.33683863 -0.2513281

bias f4 [28]
00000000: aafe 94bb 8b53 60bd 4d4f 353e 7c37 b73e
00000010: ec07 2d3b dd39 a9bd c8f9 babe 455e 5f3e
00000020: b0e9 b1be da84 94be c2eb ab3e 6fac 2d3e
00000030: 5fed 87be a15d c03e e433 e33d 5f66 d8bd
00000040: dd03 e93a b1ae 6b3e 8df5 a83e 13d1 743d
00000050: 4f22 af3e 0aa5 b7be 3c6b bd3d bbe0 973d
00000060: 354f 453e d251 db3d e508 89be afe3 02bc
-0.00454696 -0.054767173 0.17706032 0.3578452 0.0026402427 -0.0826299 -0.36518693 0.21813305
-0.34748602 -0.29007608 0.33578306 0.1696031 -0.26548287 0.37571433 0.11093882 -0.10566401
0.0017777641 0.23015858 0.3299984 0.0597697 0.34205863 -0.35868102 0.09248969 0.07415911
0.19268496 0.10708965 -0.26764598 -0.007988854

weight f4 [7, 28]
00000000: f890 193e 99fa 9cbd 16a5 bdbd 9c6b 81bc
00000010: 5f6b 3fbe 8842 b23c 498f c83d 3bab d2bd
00000020: b824 163d 60c6 5f3d 2376 3dbe 5d41 2abe
00000030: bf72 a43d 1591 f63d 4597 bd3d 2857 be3d
00000040: 8a7c 363e 1614 0c3e 5875 823d 5046 203c
00000050: 4dcd 883d 304f 23be 544a 203e 2993 7b3d
00000060: edce 04be 9c59 ab3d a971 c6bd 5ef2 1fbe
00000070: bc37 263e 5f85 a43d 6bb2 933d 50bd 263e
00000080: 6df8 033e c222 2d3c f135 a33c d67f e73d
00000090: 16ae 0d3d d043 e4bc 3fd5 0c3e ed1f 2f3e
000000a0: 88d8 253e 92a3 333e d9b3 91bd b227 943c
000000b0: 4763 153e bf7b 923c 03eb eebd 6c2e 32be
000000c0: e9e5 523d 414a 1b3e f916 cfbd e69e b3bd
000000d0: da24 cd3d f8ce c33d fc1f d6bd d7e2 e6bc
000000e0: 9153 e9bd 19fb c3bd de43 a6bd 5d9f 113e
000000f0: fcba 9d3c 0e00 12bc 12d9 cdbd c089 303e
00000100: e742 febd 6cd4 833d 1980 11be dfbd 073e
00000110: b8e5 543d faec 35be b731 cabc df77 9a3c
00000120: 6b47 40be 2e93 ca3b a648 0d3d 99e2 273e
00000130: 1dcc 3dbd 106f b73c 2785 78bd f210 91bc
00000140: b743 babd 7300 ccbd 7c33 21bc d986 163d
00000150: 1eee b43d 4b79 56bc 977a 503d a2ae d2bc
00000160: 005f efbc eee7 0e3e 19cf 9d3d ffef b53b
00000170: bce6 533d 7d19 293e e523 59bd 3f0f bdbc
00000180: a7b6 c2bd 6ad7 343e de63 19be 5426 323c
00000190: fa44 1b3e 6d05 febd 5113 303e 7fdd 9cbd
000001a0: 40c8 dbbd 12de 343e aa00 0cbe 3117 3cbe
000001b0: cadf d33c 5324 16be 468d 14be 9bea 133d
000001c0: 41ff b73b 9d7c 3c3e d492 683d 25e3 443d
000001d0: 2bd2 043e d716 2bbe 34a8 093d 3f5a 19bd
000001e0: 3623 cabc 3139 e1bd ce31 04bd 0513 17be
000001f0: c053 913d a6e9 1c3e 24e9 213e e29d d73d
00000200: b918 ca3d 40ed 85bc 0ecd 2c3c 48d5 76bd
00000210: c84a 07be 828b 40be 8fcb e83d 5222 1d3e
00000220: e035 fd3d 9978 293e 0ca4 163e fb24 bf3c
00000230: ef93 8cbd 8bfc 30be 74ad 2b3e 03aa b0bd
00000240: b9c1 fcbc 55aa 5cbd eecd 0f3e c708 45bd
00000250: 8fab 92bb 637c 633d dcca 9a3d 29ff 32bd
00000260: 26ab e03d 3f39 0b3d 6a97 7a3d f2c7 e1bd
00000270: 8d1a 22be 0b4a 99bd f2b8 1f3e 4492 403e
00000280: 0e0d fd3d 4d24 7fbd 9fa5 18be 6581 593d
00000290: 499f 193e cc19 debd 8c3c dcbd 7485 0c3e
000002a0: a648 9f3c 2df7 25bd 4a10 423d a5b7 10be
000002b0: d4fb 9abd 9c51 fabd faa0 b5bd 4204 043c
000002c0: 54ae 71bc 55ce 26bc aa00 053e 16e2 253e
000002d0: f334 ae3d 484c 383e 7d6c b8bd 9cd5 dfbd
000002e0: 4d30 243e e2d6 be3c de60 24be 975d 093e
000002f0: 8b59 f2bd 877f b6bc 2e8e 863d fc69 bcbd
00000300: 07c5 cc3c 01b1 a83d e40a 00be 2949 d23d
0.14996707 -0.07664985 -0.09260003 -0.015798382 -0.18693303 0.02176024 0.097929545 -0.10286566
0.03665611 0.054632545 -0.18502097 -0.16626497 0.080296986 0.12039391 0.09257368 0.092939675
0.17820945 0.13679537 0.06370038 0.009782389 0.06679783 -0.15948176 0.15653354 0.06141964
-0.12969561 0.08366701 -0.09689648 -0.156198 0.16232198 0.08033251 0.07211765 0.16283154
0.12887736 0.010567369 0.019923182 0.1130368 0.03458985 -0.027864367 0.13753222 0.17102022
0.16195881 0.17542866 -0.07114381 0.018085334 0.14588653 0.017881272 -0.11665919 -0.17400521
0.05148879 0.15165044 -0.101118036 -0.08770542 0.100167945 0.095609605 -0.10455319 -0.028184338
-0.11392892 -0.095693775 -0.081184134 0.14220949 0.0192542 -0.008911146 -0.100511685 0.17240047
-0.12415104 0.06437001 -0.14209022 0.13256024 0.05197689 -0.1776618 -0.024681909 0.018855987
-0.18777244 0.006182096 0.03449311 0.16395034 -0.046337236 0.022391826 -0.06067386 -0.017708275
-0.09094947 -0.09961023 -0.009838935 0.036749694 0.0883448 -0.013090442 0.05089816 -0.025718037
-0.029220104 0.13955662 0.07705516 0.0055522914 0.051733717 0.1651363 -0.053012747 -0.023078559
-0.095074944 0.17660299 -0.14979503 0.010873396 0.15163031 -0.12403379 0.17194869 -0.076594345
-0.10731554 0.17662838 -0.13672128 -0.18368222 0.025863547 -0.14662294 -0.14507017 0.03611241
0.0056151454 0.18406911 0.05678065 0.048068184 0.12970798 -0.16707931 0.033607677 -0.03743958
-0.024674993 -0.109972365 -0.03227406 -0.14753349 0.07096052 0.15323505 0.15811592 0.10528161
0.09867997 -0.016348481 0.010546936 -0.060261995 -0.1321212 -0.18803218 0.11366951 0.15345123
0.123637915 0.1654991 0.14711016 0.023333063 -0.068641536 -0.17283837 0.16765386 -0.08626177
-0.030854093 -0.05387338 0.140434 -0.048104074 -0.004476018 0.055538546 0.075582236 -0.04370037
0.10970144 0.03399014 0.061179556 -0.11024465 -0.15830441 -0.07484826 0.15597895 0.18805796
0.123560056 -0.06229048 -0.1490693 0.053101916 0.15002169 -0.10844764 -0.10753736 0.13722783
0.019443821 -0.04051893 0.047378816 -0.14132555 -0.07567564 -0.12222597 -0.088685945 0.008057656
-0.014751036 -0.010181029 0.12988535 0.16199526 0.08506193 0.17997849 -0.090050675 -0.10929415
0.1603405 0.023295823 -0.16052577 0.13414608 -0.11833485 -0.022277607 0.065700874 -0.091999024
0.024996294 0.08236886 -0.12504154 0.102678604

bias f4 [7]
00000000: d9de 263e f4f1 103e 0516 0abe 4892 90ba
00000010: 39d6 c7bd 8ddb b73d 62e4 943d
0.16295947 0.14154798 -0.13484962 -0.0011029923 -0.097576566 0.08977423 0.07270123

weight f4 [28, 7]
00000000: 8a7a 8f3e fc08 a6be ebc6 ffbd f1d5 5c3e
00000010: 35ab fd3d 06e8 533e 9b45 5a3d 8019 b53b
00000020: 881b b23e aa1c 88be 02a5 b6be 33c7 483c
00000030: 4108 86be d447 7cbe fed8 b53e 03e2 65bc
00000040: 4919 8cbe 009a 6abe eded 0e3e d082 553d
00000050: 4839 96be bbce 9d3e b990 ac3e 24e1 79be
00000060: b4b9 7cbe 25eb 873e 74bd 24be 8fc5 72be
00000070: 6795 643d 86b7 1bbe f42f 2bbe 648c 8e3e
00000080: 8d79 34be 1b80 293e d4a5 9e3e 5373 433e
00000090: 5260 abbd cfdf 84be 0c98 b03e 25b3 813e
000000a0: a8c6 813e 7afb ea3d f319 e1bd 0884 93be
000000b0: 67aa c43d df1a 5bbc a11d b53e 2753 55be
000000c0: 291d b3bd a5b2 013e 9baa 523e 64f1 fe3a
000000d0: 33e3 9a3e 7e88 bd3e 3e85 13be c931 ddbd
000000e0: f97f 223e 660b 603d cfac 813d 6d40 8a3d
000000f0: e6a4 57be 7c81 13bd 22df 9bbe e231 863e
00000100: a265 9b3d eeb2 4abd 444c df3d d0f0 a7be
00000110: 1f91 04be 58b1 1f3d 23df 0bbe f4e5 30bd
00000120: f120 3b3e df0b dbbd 859b 243e 8101 7ebe
00000130: 7419 273c 870d 85be a00a 873e 156b 4ebe
00000140: 361e 223e bff7 fb3d c50c f0bc b6c7 7abe
00000150: 44b0 bfbe 32f3 b0be d6c9 67be e300 6fbc
00000160: 207e abbe 904b aabe 7280 873b 0af7 7b3d
00000170: 5c22 513e 3f8b 8fbe 8f7b ca3a 2676 373d
00000180: 3ed6 1abe 106a 833e 4931 a33e 5c00 b73e
00000190: 3ed0 133d 5522 8bbe 2aa7 313e 7c1d 6f3e
000001a0: 77c6 b13e 0475 b73e ca1b af3d d109 5dbe
000001b0: cf02 18be e209 8ebc eb77 963e 6a1e c93d
000001c0: 63a3 2cbb b848 97bd 87a6 263e 8067 abbd
000001d0: b97b 273e 8bd4 b4be 9d7c 6bbe b64f 0ebe
000001e0: 1bd0 4b3e e5ab 78bd 1286 48be 0e04 793d
000001f0: 1574 2abe 7317 8a3e 2827 dd3d 997f b43e
00000200: 23d5 5dbe caa0 ee3d 2a39 a13e 1b21 8cbe
00000210: 1f9b ef3d 7618 cf3d a92d 21be 6ed2 a9be
00000220: 1983 773e 69ab 873e d011 7cbe 1ce7 8a3d
00000230: be6e 37be 4203 b53e 206a c7bd 1d4a b23d
00000240: fb03 e8bc f0a6 01be 93fd 08be 7242 81be
00000250: e479 8fbe 7805 643e 4a91 ba3d 221c 0dbe
00000260: 4255 b3be c3db ba3e 9fae 9d3e d554 8a3e
00000270: ec23 693e 915e aa3e 97f7 4cbe e2de 7fbe
00000280: 787f 6ebe a400 b73e ec0d 2bbe 043c a3be
00000290: f6a7 9fbe 3777 773e 3668 27be 552e 17bd
000002a0: 7145 db3d c106 3b3e 8e51 b4bc 6de9 143e
000002b0: a2c6 b8bb 84fc adbd f13b c03d aa16 253d
000002c0: e0e3 883e 087c 67be 0566 aabe d1e5 753e
000002d0: cfb7 c03e 7f7d 4a3d 5ea9 87be 6138 6dbe
000002e0: a942 a43e ea51 8abe baac 213e f17b 7ebe
000002f0: aa2b 2c3d d7a2 07bd ec21 56be bbf0 fb3d
00000300: 7e9a 243e b402 43be f2aa d2bd 9fb1 82be
0.28023177 -0.3242873 -0.124891125 0.21565987 0.12386171 0.20693979 0.053289037 0.0055267215
0.3478663 -0.2658437 -0.35672766 0.012254524 -0.26178172 -0.24636775 0.35517114 -0.014030936
-0.2736304 -0.22910309 0.13957949 0.052126706 -0.29340577 0.30821785 0.33704165 -0.2440229
-0.24680215 0.2654659 -0.16087896 -0.23708175 0.055806544 -0.15206727 -0.16717511 0.27841485
-0.17624493 0.16552775 0.30985892 0.19086961 -0.08367981 -0.25952002 0.34491003 0.2533199
0.25346875 0.114737466 -0.109912775 -0.2881167 0.09602814 -0.013373106 0.35374168 -0.20832501
-0.08745796 0.12665804 0.20572893 0.0019450602 0.30251464 0.37018198 -0.14406297 -0.108005114
0.1586913 0.05469837 0.06331789 0.067505695 -0.21058998 -0.036012158 -0.30443674 0.26209933
0.07587744 -0.049487047 0.109032184 -0.32800913 -0.12945984 0.038987488 -0.13659339 -0.04318805
0.18274285 -0.106956236 0.16074951 -0.24805261 0.01019894 -0.25986883 0.26375294 -0.20158036
0.15831837 0.12303113 -0.029302964 -0.24490246 -0.37439167 -0.34560543 -0.22635588 -0.014587614
-0.33494663 -0.33260775 0.004135185 0.06151489 0.20423263 -0.28035924 0.00154482 0.04479041
-0.1512079 0.25666857 0.3187354 0.35742462 0.036087267 -0.2717463 0.17348924 0.23351091
0.3472173 0.35831463 0.08550222 -0.21585776 -0.14844821 -0.017338697 0.29388365 0.09820254
-0.0026342503 -0.07386917 0.16274463 -0.083693504 0.1635579 -0.35318407 -0.22996755 -0.13897595
0.19903605 -0.060710806 -0.19582394 0.060794882 -0.16645844 0.26971015 0.10798484 0.352536
-0.21663336 0.11651762 0.31488925 -0.27369007 0.11699509 0.101120874 -0.15740074 -0.33168358
0.24171104 0.26497963 -0.2461617 0.06782362 -0.17913339 0.35354048 -0.097370386 0.08705542
-0.02832221 -0.12661338 -0.13377981 -0.25246006 -0.28022683 0.22267711 0.09109743 -0.13780263
-0.35025984 0.3649579 0.30797288 0.27017847 0.2276761 0.33275273 -0.20016323 -0.24987367
-0.23290813 0.35742676 -0.1670453 -0.31881726 -0.31182832 0.2416657 -0.16348347 -0.03690942
0.10706604 0.18264295 -0.022011545 0.1454217 -0.0056389133 -0.08495429 0.09386433 0.040304817
0.26736355 -0.22605908 -0.3328096 0.24013449 0.37640235 0.04943609 -0.26496404 -0.23166038
0.32082108 -0.2701562 0.15788546 -0.24851967 0.04203383 -0.03311428 -0.20911378 0.12301775
0.16074559 -0.19044 -0.102865115 -0.2552614

bias f4 [28]
00000000: a330 083e f7ff de3d 277c 75bb 2179 ac3e
00000010: e2bf 0c3e 1fe7 963e c64d 98bc ed7c 9c3d
00000020: 58aa 363e d606 93be e848 843e 58e0 27be
00000030: 5c79 14be a7b1 2e3e a6cb a2be 32ba 6ebe
00000040: 3373 6cbe 1b6e babe 3f86 22be fae4 c0be
00000050: 2006 b9be 69f7 873e 27f9 993e c274 6abe
00000060: 78e4 413e c022 713e bbd8 87be cfa2 4e3e
0.13299803 0.10888665 -0.0037458034 0.33686164 0.13745072 0.29473206 -0.018591773 0.07641015
0.17838418 -0.28716153 0.25836873 -0.16394174 -0.1449942 0.17059956 -0.31795996 -0.23313215
-0.2309082 -0.3641213 -0.15871523 -0.37674695 -0.36137486 0.26555946 0.300729 -0.22896102
0.1893481 0.23548412 -0.2653254 0.20179294

weight f4 [7, 28]
00000000: 5394 8f3d e744 01be 2ce4 b83d db5d edbd
00000010: 21f4 debd 67a4 b0bd e417 263e e7bb 0abc
00000020: 008b f1bd aa04 cabd 6005 0e3e dfba 17be
00000030: 832c 0f3e 8949 2f3e fe23 0e3e 130c 2abe
00000040: 8e04 983d 9120 f03d e87a 873d 116f 1cbe
00000050: b950 033e 946c 833d 4bd3 b13d b1fc c43d
00000060: ce32 f6bc 46cb b93d b1e1 dd3d 693e 9f3d
00000070: 32c7 28bc 7fa0 f8bd 681f 27be 4f64 8abd
00000080: fa65 0dbe 8a68 15be e1b8 0b3e 215c e03d
00000090: a6f1 22be 1226 14be 724b 833d 56d1 213e
000000a0: 1000 ee3b 6fa0 47bd 4838 3ebd 873b 1a3e
000000b0: 411a 0c3e d145 ddbc 5fa8 45bb 2f9d 963d
000000c0: 67c8 94bd f818 32be 2eab 3a3b 748c 3b3e
000000d0: de0b 863c ae9f fbbd 618a 963d b4cc 69bd
000000e0: 1645 dcbc 4966 1d3e 048e 87bd 70a2 943d
000000f0: 83b7 32be de18 143e ca61 ebbd b164 42bc
00000100: f263 37be d52d ef3d 6502 34be b529 d93d
00000110: c8ba 863d aac5 b73c 8b9d 0c3e 9bad d3bd
00000120: 3618 b6bd e3c0 0bbc 35a5 073e 9946 f63d
00000130: fcb7 9fbd d416 32bc 9824 043e 7401 3f3c
00000140: db52 3f3d f9a8 343e 563a 5fbd 9c2b 0fbe
00000150: d196 a53d 8d80 8b3d 6552 3f3e 8b24 263e
00000160: 16b6 183e 2bd7 2cbc 5740 2c3e c5c3 0abd
00000170: 67b9 9b3d 7c11 ec3d 2088 4dbd 2091 9f3d
00000180: 2470 2cbe 8320 813d e51f 1fbe 842c 913d
00000190: 10b6 dabd 9eff 80bd 7d5a fb3d 4bcf 043e
000001a0: 2561 943c a6f1 2e3d f0f5 cbbd fe21 1dbe
000001b0: 8e47 033e 0445 debd 2af2 89bc 4743 d1bd
000001c0: d6fd 093e 22d5 84bd 653d a03d 6405 403e
000001d0: b4a5 ca3b 5257 c73d d941 253e a688 243e
000001e0: 366b d63b 6850 383e 86ad ed3d e3f4 c73d
000001f0: 2082 2a3d b3f7 77bc 561c 72bd 899b 2dbe
00000200: b71b 3bbe 7ac2 1c3e e9a7 cdbd b7b6 2abe
00000210: 762b 093e 4d8d fc3d 71d8 96bc efc2 1dbe
00000220: 47d2 dbbd 314e db3d 92e2 f83d 47d5 403d
00000230: 3431 abbd ae63 1cbe 4d0b 3b3e a400 30be
00000240: a038 e23d efaf 26be 3a16 b83d 6706 003e
00000250: 3d36 b5bd 8637 bcbc e641 2cbe 1913 d53d
00000260: 52ee 76bd a0c3 3cbe f9f6 0e3e b660 263e
00000270: 7e9c e1bd fea6 fbbd d7bc 293e 6af4 ce3b
00000280: 45a3 69bc 0e62 adbd d4ed 323e f9ab a6bd
00000290: e648 253e a1a2 97bd a457 03be 47ba b6bd
000002a0: 6cea c73c d13b 35be a0b3 803d 0312 323d
000002b0: 7e2a 00be 929f a13d 8d8a f53d 5d70 1fbe
000002c0: ee5e 6b3d b772 0bbe 8cd5 14be 80e1 243e
000002d0: 9b07 a73d fd62 0a3d ab31 da3d 58e1 313e
000002e0: 8698 e2bc 684c a2bc fb58 3ebe 53cc c1bc
000002f0: a6cb 80bd 4062 2dbe e850 a93d 0f09 d8bd
00000300: da3c 413e 9002 373d ea0e 073e 7250 993c
0.070107125 -0.1262394 0.09027895 -0.11590167 -0.10886408 -0.08625107 0.16220051 -0.008467651
-0.1179409 -0.09864171 0.13869238 -0.1481738 0.13981824 0.17117895 0.13880917 -0.16606168
0.07422744 0.117249615 0.066152394 -0.15276743 0.12823762 0.06417194 0.08682879 0.096185096
-0.030053522 0.090719745 0.10834063 0.07775576 -0.010301398 -0.12139987 -0.16320574 -0.067574136
-0.13808432 -0.1459066 0.13644744 0.10955072 -0.15912494 -0.14467648 0.064108744 0.15802512
0.007263191 -0.048736986 -0.046440393 0.1506177 0.1368189 -0.02701083 -0.0030160171 0.07354199
-0.07264786 -0.17392337 0.0028483379 0.18315297 0.01636308 -0.12286316 0.073506124 -0.057079986
-0.026888411 0.1537105 -0.06618884 0.07257545 -0.17452817 0.14462611 -0.11493261 -0.011864827
-0.1790922 0.11678664 -0.17579038 0.10603658 0.065785944 0.02243312 0.13731973 -0.10335847
-0.088913366 -0.0085298745 0.13246615 0.12025184 -0.07798764 -0.0108697 0.12904584 0.011658061
0.046709877 0.17642583 -0.054498993 -0.1398148 0.080854066 0.068116285 0.18683775 0.16224878
0.1491321 -0.010549347 0.16821419 -0.033878107 0.07603722 0.115267724 -0.050178647 0.07791352
-0.16839653 0.06305029 -0.1553951 0.07088569 -0.10679257 -0.06298755 0.12273119 0.12969701
0.018112728 0.042710923 -0.09959018 -0.15344998 0.12820265 -0.108530074 -0.016839106 -0.1021791
0.13475737 -0.06485964 0.0782421 0.18752056 0.006184304 0.09733452 0.161384 0.16067752
0.0065435423 0.17999423 0.116053626 0.09763505 0.041628003 -0.01513474 -0.059109055 -0.16953863
-0.18272291 0.15308562 -0.10041792 -0.16671263 0.13395485 0.123316385 -0.018413754 -0.15406393
-0.107334666 0.10708273 0.1215259 0.047078397 -0.08358994 -0.152724 0.1826603 -0.17187744
0.110459566 -0.16278051 0.089886144 0.12502442 -0.08848236 -0.022975694 -0.16822013 0.10404033
-0.060285874 -0.18434 0.139614 0.1624783 -0.11016177 -0.122877106 0.16575943 0.0063157575
-0.014260118 -0.08465968 0.17473537 -0.0813827 0.1614109 -0.07404066 -0.12826401 -0.08922248
0.024403773 -0.176986 0.06284261 0.04347421 -0.1251621 0.07891764 0.11989317 -0.15570207
0.05746358 -0.13617979 -0.14534587 0.16101646 0.081557475 0.03378581 0.10654005 0.17371118
-0.02766062 -0.019811824 -0.18588631 -0.023657 -0.06288843 -0.1693201 0.08267385 -0.10548603
0.1887087 0.04468018 0.13189283 0.018715117

bias f4 [7]
00000000: d774 e5bd bf28 9a3d 85d6 0e3e 57f4 383d
00000010: a407 39be 4388 403e 40a1 3a3e
-0.11203926 0.07527303 0.1394902 0.045154896 -0.18069321 0.1880198 0.18225574

weight f4 [7, 7]
00000000: 0c3e eabc 304d 4b3e bc1c b03c a712 7c3e
00000010: dc4d 383e 2374 89be 756e 00be 839e a33e
00000020: 0b05 42be b1b2 91bd 9572 55be 265e 4b3e
00000030: 5b1a 7bbd ab32 2b3e 2f07 a03e d1e8 e83d
00000040: 50ca 8f3d 9269 af3e 4986 d6bd c656 803d
00000050: 8ac5 a7be 5a9e 8db9 2de2 bbbe 49c5 27bd
00000060: 31a4 48bd 9530 f1bd 4897 603e 9d00 50be
00000070: 9f07 9ebe fba3 7f3e 413e a83e 9bcf 8e3d
00000080: 04b2 863e 5bd4 b6bd 71bc 873e 9ea9 80bc
00000090: e34b abbe 980c 72be 37d1 533e 9596 9abe
000000a0: eb83 9cbc 031e 1bbe 4c39 29bd e0fd 47be
000000b0: 8d76 283e 380a 743e 5e37 893e c421 093e
000000c0: 8e12 3a3e
-0.02859404 0.19853663 0.021498077 0.2461649 0.17998451 -0.26846418 -0.12542136 0.31956872
-0.18947236 -0.07114161 -0.20844491 0.19860134 -0.06130443 0.16718547 0.3125548 0.11372531
0.0702101 0.3426023 -0.104748316 0.06266551 -0.32767898 -0.00027011597 -0.36695996 -0.04095963
-0.04898471 -0.117768444 0.21932709 -0.20312734 -0.3086519 0.24964897 0.32859996 0.06973191
0.2630769 -0.08927222 0.26510957 -0.01570588 -0.33456334 -0.23637617 0.20685278 -0.3019301
-0.019105872 -0.15148167 -0.04131441 -0.1953044 0.16451474 0.23832023 0.26800054 0.13391787
0.1817114

bias f4 [7]
00000000: dfef bebe fcf9 a2be 378c f13d 719f 5fbc
00000010: 6eda 5ebd 5f08 97bd 46a4 8ebe
-0.37292382 -0.31831348 0.11794322 -0.013648854 -0.05440753 -0.073746435 -0.27859706

params f4 [28, 7]
00000000: a294 bc3e 3e0e 3a3e 0137 26bd b297 dfbd
00000010: 714b 953e 0252 fcbd e4d5 8e3e 8651 4fbe
00000020: 6a1e 483e 2fc3 523a c2b8 b5be 7cbb efbd
00000030: 4039 d3bd 677d 743b a77f 0abe caeb 1d3e
00000040: aea9 b2be b4d8 d3bd f96a 913e 2561 803c
00000050: d935 cc3d 74ca b93e 854b 893e eaa2 263e
00000060: a003 4f3d 1123 2c3d 54d0 b03e febc 49be
00000070: a96d b8be b182 1abd 3471 5abe 358f 81be
00000080: 502d 7e3e 540e 62be 3a0c 6b3e a3a4 ad3e
00000090: bfce b7be 0a98 85be 92a7 57bd ad39 733d
000000a0: 00f4 71be 4c32 9dbe 87bb 1a3d a7ad 953e
000000b0: 6afd 733d 6a94 b1be a9e4 733e 4b4c f1bd
000000c0: 2d55 a1be fe09 293e bf2d b93d 2b2c babe
000000d0: e472 5b3d 4f66 243e 48b0 8a3d 0686 483e
000000e0: a59a 973d 5c13 bf3d 9f81 793e 196b 933e
000000f0: aa1c 253d c8a3 96be 4c16 32be d745 be3e
00000100: d2a1 90be bc93 a5be 3e87 80be 8b56 bcbd
00000110: cfc9 1ebe 1963 403e da22 233d 6c1d bebe
00000120: 281b 973e b7cf 403e bbd2 8bbe 8203 b43c
00000130: b521 20be ea13 5d3e 0297 553e f993 423e
00000140: 4799 8b3e 4992 583d 39c6 71be 27d5 9dbe
00000150: 880c bc3e d670 55be 4add dc3d 7ae9 83be
00000160: 2375 62bc f725 8d3e 16bf 943e 7efb 753e
00000170: 9c23 27be 47c0 59bd 5310 96be 5c50 893e
00000180: 7dc9 41be 7f41 f3bd b539 9ebe fa79 c13c
00000190: cabe 29be 53d8 37be a0a6 6fbc 546d 6dbe
000001a0: 82d4 38be 8526 b33e a1ab bdbd 6662 86be
000001b0: bbfc 82be fac7 31be 1dba db3d 5a9c 753e
000001c0: 0b23 c73d bc63 a63e f541 adbe f65b 033e
000001d0: 125f 393e 2bd2 1fbe 7f4a 713e 50e1 493e
000001e0: 3662 29be 6c59 473e bbd7 043b 3661 b2be
000001f0: c663 fd3d 152d a53e e2da c03e f819 923e
00000200: 7179 873e 9245 833e 4c37 0bbe 6a8d 09be
00000210: 4ea7 023e f6c0 20bc 47be 1c3e 8190 bb3e
00000220: 589c 853e 6b5b b5be 9139 a43e 41c1 08be
00000230: bdd7 6ebd 779c a8be 3aa2 9ebe 53a9 0ebe
00000240: 2d44 bebe ddd8 b2be 5999 4c3e 9169 243e
00000250: e99d f83d ed8e 28bd 0db9 593d 18e9 8abe
00000260: 9bf3 99be ac99 a73e 4417 033e 3065 a3bd
00000270: f366 7b3e 4b82 7bbe 419b 9f3e 3032 583d
00000280: 49e3 41be 5b52 8cbd 1b62 873e 489e a0be
00000290: e0e3 1abd b1b5 89be c06e 84be 6b49 a63e
000002a0: c9f8 dd3c 496d b9be 0356 43be 458b dd3c
000002b0: 5c0a e43d 2408 b33e 99d4 a03e a81d 3bbd
000002c0: 4734 403e 9563 633e 2fcf 623d bec9 773e
000002d0: c0f6 cd3d 7a55 2e3d 06b9 48ba e7bb 953d
000002e0: e202 74be 9709 9ebe dd12 4a3c 3e16 923e
000002f0: fb1a 963e 3579 bd3e 925b 8bbd 8efd ab3e
00000300: 5c72 4d3e cd98 9d3d 1d76 acbe 14ae 80be
0.36832148 0.18169495 -0.0405798 -0.109176055 0.2915912 -0.12320329 0.2789756 -0.20245942
0.19542852 0.0008039949 -0.35492522 -0.11705682 -0.10313654 0.003730619 -0.13525258 0.15421978
-0.3489508 -0.10344067 0.28401926 0.015671322 0.09971208 0.36287272 0.2681543 0.16273084
0.050540566 0.04202563 0.34533942 -0.19701001 -0.36021164 -0.037722293 -0.21332246 -0.2530457
0.24821973 -0.22075778 0.22953883 0.3391467 -0.35899922 -0.2609256 -0.052650042 0.059381176
-0.23628235 -0.30702436 0.037776496 0.2923405 0.059567846 -0.34683543 0.23817696 -0.1178213
-0.31510296 0.16507718 0.090419285 -0.36361822 0.053576365 0.16054653 0.06771904 0.19582376
0.07402543 0.093298644 0.24365853 0.28792647 0.04031054 -0.2942183 -0.17391318 0.3716266
-0.2824846 -0.32339275 -0.25103182 -0.09196194 -0.15506671 0.18787803 0.03982816 -0.37131822
0.29512906 0.18829237 -0.27309212 0.021974329 -0.15637858 0.21589628 0.20858386 0.1900176
0.2726538 0.052873883 -0.23610772 -0.30826685 0.3672831 -0.20843825 0.10784395 -0.25764066
-0.013821873 0.27568027 0.29052037 0.24021718 -0.16322178 -0.053161886 -0.2930933 0.26819122
-0.18924518 -0.11877727 -0.30903402 0.023617733 -0.16576687 -0.17953615 -0.014627129 -0.23186237
-0.18049815 0.34990326 -0.09261251 -0.26246947 -0.25583443 -0.17361441 0.10728858 0.23985425
0.09723481 0.32497966 -0.33839384 0.12828049 0.18102673 -0.15607516 0.23563574 0.19714856
-0.16541371 0.19467705 0.0020270187 -0.3483979 0.12372546 0.32260957 0.37666994 0.28535438
0.2645984 0.25639015 -0.13595313 -0.13432851 0.12759134 -0.0098116305 0.1530696 0.36633685
0.26095843 -0.3542131 0.3207517 -0.1335497 -0.058311213 -0.32931873 -0.30983144 -0.1393178
-0.3716139 -0.3493108 0.19980372 0.16055895 0.12139494 -0.04115193 0.053154994 -0.2713096
-0.3006867 0.3273443 0.12801844 -0.07978284 0.24550991 -0.24561422 0.31173137 0.052782238
-0.18934359 -0.068516456 0.26442036 -0.3137076 -0.037814975 -0.26896432 -0.25865746 0.32477888
0.02709617 -0.3621619 -0.1907578 0.027043948 0.111347884 0.34967148 0.314122 -0.04568258
0.18769942 0.22205956 0.055373367 0.24198052 0.100568295 0.042561986 -0.0007656965 0.0731123
-0.23829225 -0.3086669 0.012333599 0.28532594 0.2931746 0.37006536 -0.06804575 0.33591884
0.20063156 0.0769516 -0.33683863 -0.2513281

params f4 [28]
00000000: aafe 94bb 8b53 60bd 4d4f 353e 7c37 b73e
00000010: ec07 2d3b dd39 a9bd c8f9 babe 455e 5f3e
00000020: b0e9 b1be da84 94be c2eb ab3e 6fac 2d3e
00000030: 5fed 87be a15d c03e e433 e33d 5f66 d8bd
00000040: dd03 e93a b1ae 6b3e 8df5 a83e 13d1 743d
00000050: 4f22 af3e 0aa5 b7be 3c6b bd3d bbe0 973d
00000060: 354f 453e d251 db3d e508 89be afe3 02bc
-0.00454696 -0.054767173 0.17706032 0.3578452 0.0026402427 -0.0826299 -0.36518693 0.21813305
-0.34748602 -0.29007608 0.33578306 0.1696031 -0.26548287 0.37571433 0.11093882 -0.10566401
0.0017777641 0.23015858 0.3299984 0.0597697 0.34205863 -0.35868102 0.09248969 0.07415911
0.19268496 0.10708965 -0.26764598 -0.007988854

params f4 [7, 28]
00000000: f890 193e 99fa 9cbd 16a5 bdbd 9c6b 81bc
00000010: 5f6b 3fbe 8842 b23c 498f c83d 3bab d2bd
00000020: b824 163d 60c6 5f3d 2376 3dbe 5d41 2abe
00000030: bf72 a43d 1591 f63d 4597 bd3d 2857 be3d
00000040: 8a7c 363e 1614 0c3e 5875 823d 5046 203c
00000050: 4dcd 883d 304f 23be 544a 203e 2993 7b3d
00000060: edce 04be 9c59 ab3d a971 c6bd 5ef2 1fbe
00000070: bc37 263e 5f85 a43d 6bb2 933d 50bd 263e
00000080: 6df8 033e c222 2d3c f135 a33c d67f e73d
00000090: 16ae 0d3d d043 e4bc 3fd5 0c3e ed1f 2f3e
000000a0: 88d8 253e 92a3 333e d9b3 91bd b227 943c
000000b0: 4763 153e bf7b 923c 03eb eebd 6c2e 32be
000000c0: e9e5 523d 414a 1b3e f916 cfbd e69e b3bd
000000d0: da24 cd3d f8ce c33d fc1f d6bd d7e2 e6bc
000000e0: 9153 e9bd 19fb c3bd de43 a6bd 5d9f 113e
000000f0: fcba 9d3c 0e00 12bc 12d9 cdbd c089 303e
00000100: e742 febd 6cd4 833d 1980 11be dfbd 073e
00000110: b8e5 543d faec 35be b731 cabc df77 9a3c
00000120: 6b47 40be 2e93 ca3b a648 0d3d 99e2 273e
00000130: 1dcc 3dbd 106f b73c 2785 78bd f210 91bc
00000140: b743 babd 7300 ccbd 7c33 21bc d986 163d
00000150: 1eee b43d 4b79 56bc 977a 503d a2ae d2bc
00000160: 005f efbc eee7 0e3e 19cf 9d3d ffef b53b
00000170: bce6 533d 7d19 293e e523 59bd 3f0f bdbc
00000180: a7b6 c2bd 6ad7 343e de63 19be 5426 323c
00000190: fa44 1b3e 6d05 febd 5113 303e 7fdd 9cbd
000001a0: 40c8 dbbd 12de 343e aa00 0cbe 3117 3cbe
000001b0: cadf d33c 5324 16be 468d 14be 9bea 133d
000001c0: 41ff b73b 9d7c 3c3e d492 683d 25e3 443d
000001d0: 2bd2 043e d716 2bbe 34a8 093d 3f5a 19bd
000001e0: 3623 cabc 3139 e1bd ce31 04bd 0513 17be
000001f0: c053 913d a6e9 1c3e 24e9 213e e29d d73d
00000200: b918 ca3d 40ed 85bc 0ecd 2c3c 48d5 76bd
00000210: c84a 07be 828b 40be 8fcb e83d 5222 1d3e
00000220: e035 fd3d 9978 293e 0ca4 163e fb24 bf3c
00000230: ef93 8cbd 8bfc 30be 74ad 2b3e 03aa b0bd
00000240: b9c1 fcbc 55aa 5cbd eecd 0f3e c708 45bd
00000250: 8fab 92bb 637c 633d dcca 9a3d 29ff 32bd
00000260: 26ab e03d 3f39 0b3d 6a97 7a3d f2c7 e1bd
00000270: 8d1a 22be 0b4a 99bd f2b8 1f3e 4492 403e
00000280: 0e0d fd3d 4d24 7fbd 9fa5 18be 6581 593d
00000290: 499f 193e cc19 debd 8c3c dcbd 7485 0c3e
000002a0: a648 9f3c 2df7 25bd 4a10 423d a5b7 10be
000002b0: d4fb 9abd 9c51 fabd faa0 b5bd 4204 043c
000002c0: 54ae 71bc 55ce 26bc aa00 053e 16e2 253e
000002d0: f334 ae3d 484c 383e 7d6c b8bd 9cd5 dfbd
000002e0: 4d30 243e e2d6 be3c de60 24be 975d 093e
000002f0: 8b59 f2bd 877f b6bc 2e8e 863d fc69 bcbd
00000300: 07c5 cc3c 01b1 a83d e40a 00be 2949 d23d
0.14996707 -0.07664985 -0.09260003 -0.015798382 -0.18693303 0.02176024 0.097929545 -0.10286566
0.03665611 0.054632545 -0.18502097 -0.16626497 0.080296986 0.12039391 0.09257368 0.092939675
0.17820945 0.13679537 0.06370038 0.009782389 0.06679783 -0.15948176 0.15653354 0.06141964
-0.12969561 0.08366701 -0.09689648 -0.156198 0.16232198 0.08033251 0.07211765 0.16283154
0.12887736 0.010567369 0.019923182 0.1130368 0.03458985 -0.027864367 0.13753222 0.17102022
0.16195881 0.17542866 -0.07114381 0.018085334 0.14588653 0.017881272 -0.11665919 -0.17400521
0.05148879 0.15165044 -0.101118036 -0.08770542 0.100167945 0.095609605 -0.10455319 -0.028184338
-0.11392892 -0.095693775 -0.081184134 0.14220949 0.0192542 -0.008911146 -0.100511685 0.17240047
-0.12415104 0.06437001 -0.14209022 0.13256024 0.05197689 -0.1776618 -0.024681909 0.018855987
-0.18777244 0.006182096 0.03449311 0.16395034 -0.046337236 0.022391826 -0.06067386 -0.017708275
-0.09094947 -0.09961023 -0.009838935 0.036749694 0.0883448 -0.013090442 0.05089816 -0.025718037
-0.029220104 0.13955662 0.07705516 0.0055522914 0.051733717 0.1651363 -0.053012747 -0.023078559
-0.095074944 0.17660299 -0.14979503 0.010873396 0.15163031 -0.12403379 0.17194869 -0.076594345
-0.10731554 0.17662838 -0.13672128 -0.18368222 0.025863547 -0.14662294 -0.14507017 0.03611241
0.0056151454 0.18406911 0.05678065 0.048068184 0.12970798 -0.16707931 0.033607677 -0.03743958
-0.024674993 -0.109972365 -0.03227406 -0.14753349 0.07096052 0.15323505 0.15811592 0.10528161
0.09867997 -0.016348481 0.010546936 -0.060261995 -0.1321212 -0.18803218 0.11366951 0.15345123
0.123637915 0.1654991 0.14711016 0.023333063 -0.068641536 -0.17283837 0.16765386 -0.08626177
-0.030854093 -0.05387338 0.140434 -0.048104074 -0.004476018 0.055538546 0.075582236 -0.04370037
0.10970144 0.03399014 0.061179556 -0.11024465 -0.15830441 -0.07484826 0.15597895 0.18805796
0.123560056 -0.06229048 -0.1490693 0.053101916 0.15002169 -0.10844764 -0.10753736 0.13722783
0.019443821 -0.04051893 0.047378816 -0.14132555 -0.07567564 -0.12222597 -0.088685945 0.008057656
-0.014751036 -0.010181029 0.12988535 0.16199526 0.08506193 0.17997849 -0.090050675 -0.10929415
0.1603405 0.023295823 -0.16052577 0.13414608 -0.11833485 -0.022277607 0.065700874 -0.091999024
0.024996294 0.08236886 -0.12504154 0.102678604

params f4 [7]
00000000: d9de 263e f4f1 103e 0516 0abe 4892 90ba
00000010: 39d6 c7bd 8ddb b73d 62e4 943d
0.16295947 0.14154798 -0.13484962 -0.0011029923 -0.097576566 0.08977423 0.07270123

params f4 [28, 7]
00000000: 8a7a 8f3e fc08 a6be ebc6 ffbd f1d5 5c3e
00000010: 35ab fd3d 06e8 533e 9b45 5a3d 8019 b53b
00000020: 881b b23e aa1c 88be 02a5 b6be 33c7 483c
00000030: 4108 86be d447 7cbe fed8 b53e 03e2 65bc
00000040: 4919 8cbe 009a 6abe eded 0e3e d082 553d
00000050: 4839 96be bbce 9d3e b990 ac3e 24e1 79be
00000060: b4b9 7cbe 25eb 873e 74bd 24be 8fc5 72be
00000070: 6795 643d 86b7 1bbe f42f 2bbe 648c 8e3e
00000080: 8d79 34be 1b80 293e d4a5 9e3e 5373 433e
00000090: 5260 abbd cfdf 84be 0c98 b03e 25b3 813e
000000a0: a8c6 813e 7afb ea3d f319 e1bd 0884 93be
000000b0: 67aa c43d df1a 5bbc a11d b53e 2753 55be
000000c0: 291d b3bd a5b2 013e 9baa 523e 64f1 fe3a
000000d0: 33e3 9a3e 7e88 bd3e 3e85 13be c931 ddbd
000000e0: f97f 223e 660b 603d cfac 813d 6d40 8a3d
000000f0: e6a4 57be 7c81 13bd 22df 9bbe e231 863e
00000100: a265 9b3d eeb2 4abd 444c df3d d0f0 a7be
00000110: 1f91 04be 58b1 1f3d 23df 0bbe f4e5 30bd
00000120: f120 3b3e df0b dbbd 859b 243e 8101 7ebe
00000130: 7419 273c 870d 85be a00a 873e 156b 4ebe
00000140: 361e 223e bff7 fb3d c50c f0bc b6c7 7abe
00000150: 44b0 bfbe 32f3 b0be d6c9 67be e300 6fbc
00000160: 207e abbe 904b aabe 7280 873b 0af7 7b3d
00000170: 5c22 513e 3f8b 8fbe 8f7b ca3a 2676 373d
00000180: 3ed6 1abe 106a 833e 4931 a33e 5c00 b73e
00000190: 3ed0 133d 5522 8bbe 2aa7 313e 7c1d 6f3e
000001a0: 77c6 b13e 0475 b73e ca1b af3d d109 5dbe
000001b0: cf02 18be e209 8ebc eb77 963e 6a1e c93d
000001c0: 63a3 2cbb b848 97bd 87a6 263e 8067 abbd
000001d0: b97b 273e 8bd4 b4be 9d7c 6bbe b64f 0ebe
000001e0: 1bd0 4b3e e5ab 78bd 1286 48be 0e04 793d
000001f0: 1574 2abe 7317 8a3e 2827 dd3d 997f b43e
00000200: 23d5 5dbe caa0 ee3d 2a39 a13e 1b21 8cbe
00000210: 1f9b ef3d 7618 cf3d a92d 21be 6ed2 a9be
00000220: 1983 773e 69ab 873e d011 7cbe 1ce7 8a3d
00000230: be6e 37be 4203 b53e 206a c7bd 1d4a b23d
00000240: fb03 e8bc f0a6 01be 93fd 08be 7242 81be
00000250: e479 8fbe 7805 643e 4a91 ba3d 221c 0dbe
00000260: 4255 b3be c3db ba3e 9fae 9d3e d554 8a3e
00000270: ec23 693e 915e aa3e 97f7 4cbe e2de 7fbe
00000280: 787f 6ebe a400 b73e ec0d 2bbe 043c a3be
00000290: f6a7 9fbe 3777 773e 3668 27be 552e 17bd
000002a0: 7145 db3d c106 3b3e 8e51 b4bc 6de9 143e
000002b0: a2c6 b8bb 84fc adbd f13b c03d aa16 253d
000002c0: e0e3 883e 087c 67be 0566 aabe d1e5 753e
000002d0: cfb7 c03e 7f7d 4a3d 5ea9 87be 6138 6dbe
000002e0: a942 a43e ea51 8abe baac 213e f17b 7ebe
000002f0: aa2b 2c3d d7a2 07bd ec21 56be bbf0 fb3d
00000300: 7e9a 243e b402 43be f2aa d2bd 9fb1 82be
0.28023177 -0.3242873 -0.124891125 0.21565987 0.12386171 0.20693979 0.053289037 0.0055267215
0.3478663 -0.2658437 -0.35672766 0.012254524 -0.26178172 -0.24636775 0.35517114 -0.014030936
-0.2736304 -0.22910309 0.13957949 0.052126706 -0.29340577 0.30821785 0.33704165 -0.2440229
-0.24680215 0.2654659 -0.16087896 -0.23708175 0.055806544 -0.15206727 -0.16717511 0.27841485
-0.17624493 0.16552775 0.30985892 0.19086961 -0.08367981 -0.25952002 0.34491003 0.2533199
0.25346875 0.114737466 -0.109912775 -0.2881167 0.09602814 -0.013373106 0.35374168 -0.20832501
-0.08745796 0.12665804 0.20572893 0.0019450602 0.30251464 0.37018198 -0.14406297 -0.108005114
0.1586913 0.05469837 0.06331789 0.067505695 -0.21058998 -0.036012158 -0.30443674 0.26209933
0.07587744 -0.049487047 0.109032184 -0.32800913 -0.12945984 0.038987488 -0.13659339 -0.04318805
0.18274285 -0.106956236 0.16074951 -0.24805261 0.01019894 -0.25986883 0.26375294 -0.20158036
0.15831837 0.12303113 -0.029302964 -0.24490246 -0.37439167 -0.34560543 -0.22635588 -0.014587614
-0.33494663 -0.33260775 0.004135185 0.06151489 0.20423263 -0.28035924 0.00154482 0.04479041
-0.1512079 0.25666857 0.3187354 0.35742462 0.036087267 -0.2717463 0.17348924 0.23351091
0.3472173 0.35831463 0.08550222 -0.21585776 -0.14844821 -0.017338697 0.29388365 0.09820254
-0.0026342503 -0.07386917 0.16274463 -0.083693504 0.1635579 -0.35318407 -0.22996755 -0.13897595
0.19903605 -0.060710806 -0.19582394 0.060794882 -0.16645844 0.26971015 0.10798484 0.352536
-0.21663336 0.11651762 0.31488925 -0.27369007 0.11699509 0.101120874 -0.15740074 -0.33168358
0.24171104 0.26497963 -0.2461617 0.06782362 -0.17913339 0.35354048 -0.097370386 0.08705542
-0.02832221 -0.12661338 -0.13377981 -0.25246006 -0.28022683 0.22267711 0.09109743 -0.13780263
-0.35025984 0.3649579 0.30797288 0.27017847 0.2276761 0.33275273 -0.20016323 -0.24987367
-0.23290813 0.35742676 -0.1670453 -0.31881726 -0.31182832 0.2416657 -0.16348347 -0.03690942
0.10706604 0.18264295 -0.022011545 0.1454217 -0.0056389133 -0.08495429 0.09386433 0.040304817
0.26736355 -0.22605908 -0.3328096 0.24013449 0.37640235 0.04943609 -0.26496404 -0.23166038
0.32082108 -0.2701562 0.15788546 -0.24851967 0.04203383 -0.03311428 -0.20911378 0.12301775
0.16074559 -0.19044 -0.102865115 -0.2552614

params f4 [28]
00000000: a330 083e f7ff de3d 277c 75bb 2179 ac3e
00000010: e2bf 0c3e 1fe7 963e c64d 98bc ed7c 9c3d
00000020: 58aa 363e d606 93be e848 843e 58e0 27be
00000030: 5c79 14be a7b1 2e3e a6cb a2be 32ba 6ebe
00000040: 3373 6cbe 1b6e babe 3f86 22be fae4 c0be
00000050: 2006 b9be 69f7 873e 27f9 993e c274 6abe
00000060: 78e4 413e c022 713e bbd8 87be cfa2 4e3e
0.13299803 0.10888665 -0.0037458034 0.33686164 0.13745072 0.29473206 -0.018591773 0.07641015
0.17838418 -0.28716153 0.25836873 -0.16394174 -0.1449942 0.17059956 -0.31795996 -0.23313215
-0.2309082 -0.3641213 -0.15871523 -0.37674695 -0.36137486 0.26555946 0.300729 -0.22896102
0.1893481 0.23548412 -0.2653254 0.20179294

params f4 [7, 28]
00000000: 5394 8f3d e744 01be 2ce4 b83d db5d edbd
00000010: 21f4 debd 67a4 b0bd e417 263e e7bb 0abc
00000020: 008b f1bd aa04 cabd 6005 0e3e dfba 17be
00000030: 832c 0f3e 8949 2f3e fe23 0e3e 130c 2abe
00000040: 8e04 983d 9120 f03d e87a 873d 116f 1cbe
00000050: b950 033e 946c 833d 4bd3 b13d b1fc c43d
00000060: ce32 f6bc 46cb b93d b1e1 dd3d 693e 9f3d
00000070: 32c7 28bc 7fa0 f8bd 681f 27be 4f64 8abd
00000080: fa65 0dbe 8a68 15be e1b8 0b3e 215c e03d
00000090: a6f1 22be 1226 14be 724b 833d 56d1 213e
000000a0: 1000 ee3b 6fa0 47bd 4838 3ebd 873b 1a3e
000000b0: 411a 0c3e d145 ddbc 5fa8 45bb 2f9d 963d
000000c0: 67c8 94bd f818 32be 2eab 3a3b 748c 3b3e
000000d0: de0b 863c ae9f fbbd 618a 963d b4cc 69bd
000000e0: 1645 dcbc 4966 1d3e 048e 87bd 70a2 943d
000000f0: 83b7 32be de18 143e ca61 ebbd b164 42bc
00000100: f263 37be d52d ef3d 6502 34be b529 d93d
00000110: c8ba 863d aac5 b73c 8b9d 0c3e 9bad d3bd
00000120: 3618 b6bd e3c0 0bbc 35a5 073e 9946 f63d
00000130: fcb7 9fbd d416 32bc 9824 043e 7401 3f3c
00000140: db52 3f3d f9a8 343e 563a 5fbd 9c2b 0fbe
00000150: d196 a53d 8d80 8b3d 6552 3f3e 8b24 263e
00000160: 16b6 183e 2bd7 2cbc 5740 2c3e c5c3 0abd
00000170: 67b9 9b3d 7c11 ec3d 2088 4dbd 2091 9f3d
00000180: 2470 2cbe 8320 813d e51f 1fbe 842c 913d
00000190: 10b6 dabd 9eff 80bd 7d5a fb3d 4bcf 043e
000001a0: 2561 943c a6f1 2e3d f0f5 cbbd fe21 1dbe
000001b0: 8e47 033e 0445 debd 2af2 89bc 4743 d1bd
000001c0: d6fd 093e 22d5 84bd 653d a03d 6405 403e
000001d0: b4a5 ca3b 5257 c73d d941 253e a688 243e
000001e0: 366b d63b 6850 383e 86ad ed3d e3f4 c73d
000001f0: 2082 2a3d b3f7 77bc 561c 72bd 899b 2dbe
00000200: b71b 3bbe 7ac2 1c3e e9a7 cdbd b7b6 2abe
00000210: 762b 093e 4d8d fc3d 71d8 96bc efc2 1dbe
00000220: 47d2 dbbd 314e db3d 92e2 f83d 47d5 403d
00000230: 3431 abbd ae63 1cbe 4d0b 3b3e a400 30be
00000240: a038 e23d efaf 26be 3a16 b83d 6706 003e
00000250: 3d36 b5bd 8637 bcbc e641 2cbe 1913 d53d
00000260: 52ee 76bd a0c3 3cbe f9f6 0e3e b660 263e
00000270: 7e9c e1bd fea6 fbbd d7bc 293e 6af4 ce3b
00000280: 45a3 69bc 0e62 adbd d4ed 323e f9ab a6bd
00000290: e648 253e a1a2 97bd a457 03be 47ba b6bd
000002a0: 6cea c73c d13b 35be a0b3 803d 0312 323d
000002b0: 7e2a 00be 929f a13d 8d8a f53d 5d70 1fbe
000002c0: ee5e 6b3d b772 0bbe 8cd5 14be 80e1 243e
000002d0: 9b07 a73d fd62 0a3d ab31 da3d 58e1 313e
000002e0: 8698 e2bc 684c a2bc fb58 3ebe 53cc c1bc
000002f0: a6cb 80bd 4062 2dbe e850 a93d 0f09 d8bd
00000300: da3c 413e 9002 373d ea0e 073e 7250 993c
0.070107125 -0.1262394 0.09027895 -0.11590167 -0.10886408 -0.08625107 0.16220051 -0.008467651
-0.1179409 -0.09864171 0.13869238 -0.1481738 0.13981824 0.17117895 0.13880917 -0.16606168
0.07422744 0.117249615 0.066152394 -0.15276743 0.12823762 0.06417194 0.08682879 0.096185096
-0.030053522 0.090719745 0.10834063 0.07775576 -0.010301398 -0.12139987 -0.16320574 -0.067574136
-0.13808432 -0.1459066 0.13644744 0.10955072 -0.15912494 -0.14467648 0.064108744 0.15802512
0.007263191 -0.048736986 -0.046440393 0.1506177 0.1368189 -0.02701083 -0.0030160171 0.07354199
-0.07264786 -0.17392337 0.0028483379 0.18315297 0.01636308 -0.12286316 0.073506124 -0.057079986
-0.026888411 0.1537105 -0.06618884 0.07257545 -0.17452817 0.14462611 -0.11493261 -0.011864827
-0.1790922 0.11678664 -0.17579038 0.10603658 0.065785944 0.02243312 0.13731973 -0.10335847
-0.088913366 -0.0085298745 0.13246615 0.12025184 -0.07798764 -0.0108697 0.12904584 0.011658061
0.046709877 0.17642583 -0.054498993 -0.1398148 0.080854066 0.068116285 0.18683775 0.16224878
0.1491321 -0.010549347 0.16821419 -0.033878107 0.07603722 0.115267724 -0.050178647 0.07791352
-0.16839653 0.06305029 -0.1553951 0.07088569 -0.10679257 -0.06298755 0.12273119 0.12969701
0.018112728 0.042710923 -0.09959018 -0.15344998 0.12820265 -0.108530074 -0.016839106 -0.1021791
0.13475737 -0.06485964 0.0782421 0.18752056 0.006184304 0.09733452 0.161384 0.16067752
0.0065435423 0.17999423 0.116053626 0.09763505 0.041628003 -0.01513474 -0.059109055 -0.16953863
-0.18272291 0.15308562 -0.10041792 -0.16671263 0.13395485 0.123316385 -0.018413754 -0.15406393
-0.107334666 0.10708273 0.1215259 0.047078397 -0.08358994 -0.152724 0.1826603 -0.17187744
0.110459566 -0.16278051 0.089886144 0.12502442 -0.08848236 -0.022975694 -0.16822013 0.10404033
-0.060285874 -0.18434 0.139614 0.1624783 -0.11016177 -0.122877106 0.16575943 0.0063157575
-0.014260118 -0.08465968 0.17473537 -0.0813827 0.1614109 -0.07404066 -0.12826401 -0.08922248
0.024403773 -0.176986 0.06284261 0.04347421 -0.1251621 0.07891764 0.11989317 -0.15570207
0.05746358 -0.13617979 -0.14534587 0.16101646 0.081557475 0.03378581 0.10654005 0.17371118
-0.02766062 -0.019811824 -0.18588631 -0.023657 -0.06288843 -0.1693201 0.08267385 -0.10548603
0.1887087 0.04468018 0.13189283 0.018715117

params f4 [7]
00000000: d774 e5bd bf28 9a3d 85d6 0e3e 57f4 383d
00000010: a407 39be 4388 403e 40a1 3a3e
-0.11203926 0.07527303 0.1394902 0.045154896 -0.18069321 0.1880198 0.18225574

params f4 [7, 7]
00000000: 0c3e eabc 304d 4b3e bc1c b03c a712 7c3e
00000010: dc4d 383e 2374 89be 756e 00be 839e a33e
00000020: 0b05 42be b1b2 91bd 9572 55be 265e 4b3e
00000030: 5b1a 7bbd ab32 2b3e 2f07 a03e d1e8 e83d
00000040: 50ca 8f3d 9269 af3e 4986 d6bd c656 803d
00000050: 8ac5 a7be 5a9e 8db9 2de2 bbbe 49c5 27bd
00000060: 31a4 48bd 9530 f1bd 4897 603e 9d00 50be
00000070: 9f07 9ebe fba3 7f3e 413e a83e 9bcf 8e3d
00000080: 04b2 863e 5bd4 b6bd 71bc 873e 9ea9 80bc
00000090: e34b abbe 980c 72be 37d1 533e 9596 9abe
000000a0: eb83 9cbc 031e 1bbe 4c39 29bd e0fd 47be
000000b0: 8d76 283e 380a 743e 5e37 893e c421 093e
000000c0: 8e12 3a3e
-0.02859404 0.19853663 0.021498077 0.2461649 0.17998451 -0.26846418 -0.12542136 0.31956872
-0.18947236 -0.07114161 -0.20844491 0.19860134 -0.06130443 0.16718547 0.3125548 0.11372531
0.0702101 0.3426023 -0.104748316 0.06266551 -0.32767898 -0.00027011597 -0.36695996 -0.04095963
-0.04898471 -0.117768444 0.21932709 -0.20312734 -0.3086519 0.24964897 0.32859996 0.06973191
0.2630769 -0.08927222 0.26510957 -0.01570588 -0.33456334 -0.23637617 0.20685278 -0.3019301
-0.019105872 -0.15148167 -0.04131441 -0.1953044 0.16451474 0.23832023 0.26800054 0.13391787
0.1817114

params f4 [7]
00000000: dfef bebe fcf9 a2be 378c f13d 719f 5fbc
00000010: 6eda 5ebd 5f08 97bd 46a4 8ebe
-0.37292382 -0.31831348 0.11794322 -0.013648854 -0.05440753 -0.073746435 -0.27859706

inputs_tensor f4 [112, 1, 7]
00000000: 0000 0000 0000 0000 0000 0000 0000 0000
00000010: 0000 0000 0000 0000 0000 0000 0000 0000
00000020: 0000 0000 0000 0000 0000 0000 0000 0000
00000030: 0000 0000 0000 0000 0000 0000 0000 0000
00000040: 0000 0000 0000 0000 0000 0000 0000 0000
00000050: 0000 0000 0000 0000 0000 0000 0000 0000
00000060: 0000 0000 0000 0000 0000 0000 0000 0000
00000070: 0000 0000 0000 0000 0000 0000 0000 0000
00000080: 0000 0000 0000 0000 0000 0000 0000 0000
00000090: 0000 0000 0000 0000 0000 0000 0000 0000
000000a0: 0000 0000 0000 0000 0000 0000 0000 0000
000000b0: 0000 0000 0000 0000 0000 0000 0000 0000
000000c0: 0000 0000 0000 0000 0000 0000 0000 0000
000000d0: 0000 0000 0000 0000 0000 0000 0000 0000
000000e0: 0000 0000 0000 0000 0000 0000 0000 0000
000000f0: 0000 0000 0000 0000 0000 0000 0000 0000
00000100: 0000 0000 0000 0000 0000 0000 0000 0000
00000110: 0000 0000 2549 123e 0000 0000 0000 0000
00000120: 0000 0000 0000 0000 0000 0000 2549 123e
00000130: 2549 123e 0000 0000 0000 0000 0000 0000
00000140: 0000 0000 2549 123e 2549 123e 2549 123e
00000150: 0000 0000 0000 0000 0000 0000 2549 123e
00000160: 2549 123e 2549 123e 2549 123e 0000 0000
00000170: 0000 0000 2549 123e 2549 123e 2549 123e
00000180: 2549 123e 2549 923e 0000 0000 2549 123e
00000190: 2549 123e 2549 123e 2549 123e 2549 923e
000001a0: 2549 923e 2549 123e 2549 123e 2549 123e
000001b0: 2549 123e 2549 923e 2549 923e 2549 123f
000001c0: 2549 123e 2549 123e 2549 123e 2549 923e
000001d0: 2549 923e 2549 123f 6edb 363f 2549 123e
000001e0: 2549 123e 2549 923e 2549 923e 2549 123f
000001f0: 6edb 363f b76d 5b3f 2549 123e 2549 923e
00000200: 2549 923e 2549 123f 6edb 363f b76d 5b3f
00000210: b76d 5b3f 2549 923e 2549 923e 2549 123f
00000220: 6edb 363f b76d 5b3f b76d 5b3f 0000 803f
00000230: 2549 923e 2549 123f 6edb 363f b76d 5b3f
00000240: b76d 5b3f 0000 803f 4992 a43f 2549 123f
00000250: 6edb 363f b76d 5b3f b76d 5b3f 0000 803f
00000260: 4992 a43f 4992 a43f 6edb 363f b76d 5b3f
00000270: b76d 5b3f 0000 803f 4992 a43f 4992 a43f
00000280: 0000 803f b76d 5b3f b76d 5b3f 0000 803f
00000290: 4992 a43f 4992 a43f 0000 803f 0000 803f
000002a0: b76d 5b3f 0000 803f 4992 a43f 4992 a43f
000002b0: 0000 803f 0000 803f 6edb b63f 0000 803f
000002c0: 4992 a43f 4992 a43f 0000 803f 0000 803f
000002d0: 6edb b63f 9224 c93f 4992 a43f 4992 a43f
000002e0: 0000 803f 0000 803f 6edb b63f 9224 c93f
000002f0: 9224 c93f 4992 a43f 0000 803f 0000 803f
00000300: 6edb b63f 9224 c93f 9224 c93f 4992 a43f
00000310: 0000 803f 0000 803f 6edb b63f 9224 c93f
00000320: 9224 c93f 4992 a43f b76d db3f 0000 803f
00000330: 6edb b63f 9224 c93f 9224 c93f 4992 a43f
00000340: b76d db3f dbb6 ed3f 6edb b63f 9224 c93f
00000350: 9224 c93f 4992 a43f b76d db3f dbb6 ed3f
00000360: dbb6 ed3f 9224 c93f 9224 c93f 4992 a43f
00000370: b76d db3f dbb6 ed3f dbb6 ed3f 6edb b63f
00000380: 9224 c93f 4992 a43f b76d db3f dbb6 ed3f
00000390: dbb6 ed3f 6edb b63f 6edb b63f 4992 a43f
000003a0: b76d db3f dbb6 ed3f dbb6 ed3f 6edb b63f
000003b0: 6edb b63f 6edb b63f b76d db3f dbb6 ed3f
000003c0: dbb6 ed3f 6edb b63f 6edb b63f 6edb b63f
000003d0: 0000 0040 dbb6 ed3f dbb6 ed3f 6edb b63f
000003e0: 6edb b63f 6edb b63f 0000 0040 9224 0940
000003f0: dbb6 ed3f 6edb b63f 6edb b63f 6edb b63f
0.0 0.0 0.0 0.0 0.0 0.0 0.0 0.0
0.0 0.0 0.0 0.0 0.0 0.0 0.0 0.0
0.0 0.0 0.0 0.0 0.0 0.0 0.0 0.0
0.0 0.0 0.0 0.0 0.0 0.0 0.0 0.0
0.0 0.0 0.0 0.0 0.0 0.0 0.0 0.0
0.0 0.0 0.0 0.0 0.0 0.0 0.0 0.0
0.0 0.0 0.0 0.0 0.0 0.0 0.0 0.0
0.0 0.0 0.0 0.0 0.0 0.0 0.0 0.0
0.0 0.0 0.0 0.0 0.0 0.14285715 0.0 0.0
0.0 0.0 0.0 0.14285715 0.14285715 0.0 0.0 0.0
0.0 0.14285715 0.14285715 0.14285715 0.0 0.0 0.0 0.14285715
0.14285715 0.14285715 0.14285715 0.0 0.0 0.14285715 0.14285715 0.14285715
0.14285715 0.2857143 0.0 0.14285715 0.14285715 0.14285715 0.14285715 0.2857143
0.2857143 0.14285715 0.14285715 0.14285715 0.14285715 0.2857143 0.2857143 0.5714286
0.14285715 0.14285715 0.14285715 0.2857143 0.2857143 0.5714286 0.71428573 0.14285715
0.14285715 0.2857143 0.2857143 0.5714286 0.71428573 0.85714287 0.14285715 0.2857143
0.2857143 0.5714286 0.71428573 0.85714287 0.85714287 0.2857143 0.2857143 0.5714286
0.71428573 0.85714287 0.85714287 1.0 0.2857143 0.5714286 0.71428573 0.85714287
0.85714287 1.0 1.2857143 0.5714286 0.71428573 0.85714287 0.85714287 1.0
1.2857143 1.2857143 0.71428573 0.85714287 0.85714287 1.0 1.2857143 1.2857143
1.0 0.85714287 0.85714287 1.0 1.2857143 1.2857143 1.0 1.0
0.85714287 1.0 1.2857143 1.2857143 1.0 1.0 1.4285715 1.0
1.2857143 1.2857143 1.0 1.0 1.4285715 1.5714285 1.2857143 1.2857143
1.0 1.0 1.4285715 1.5714285 1.5714285 1.2857143 1.0 1.0
1.4285715 1.5714285 1.5714285 1.2857143 1.0 1.0 1.4285715 1.5714285
1.5714285 1.2857143 1.7142857 1.0 1.4285715 1.5714285 1.5714285 1.2857143
1.7142857 1.8571428 1.4285715 1.5714285 1.5714285 1.2857143 1.7142857 1.8571428
1.8571428 1.5714285 1.5714285 1.2857143 1.7142857 1.8571428 1.8571428 1.4285715
1.5714285 1.2857143 1.7142857 1.8571428 1.8571428 1.4285715 1.4285715 1.2857143
1.7142857 1.8571428 1.8571428 1.4285715 1.4285715 1.4285715 1.7142857 1.8571428
1.8571428 1.4285715 1.4285715 1.4285715 2.0 1.8571428 1.8571428 1.4285715
1.4285715 1.4285715 2.0 2.142857 1.8571428 1.4285715 1.4285715 1.4285715
